app/src/main/assets/model.tflite (tflite, 259312 bytes, 8 tensors)

dense_3/bias f4 [10]
00000000: 1380 66bd b50a bebd 1c74 0c3c daf6 233d
00000010: 2bfc c1bd 7cc5 74bd 1bd9 e03d 3d9c 863d
00000020: ae20 07bd 935e 10bd
-0.056274485 -0.09279386 0.0085726045 0.040030338 -0.09471925 -0.05975865 0.109789096 0.06572769
-0.03299015 -0.035246443

dense_2/bias f4 [64]
00000000: c67a 05bd ea14 b53c 1c6b c7bb 297e a03c
00000010: 9fb8 aebb 518f a7bb b14e a7bc 3d9a 96bb
00000020: 9660 233c 70b9 49bc feae 01bd 14ef c83c
00000030: 5634 16bc 31e0 75bd e0dd 133d 06d4 8d3d
00000040: 0885 413d 2eb5 cf3c 77a0 a43c cbca 08bc
00000050: e9be 8a3d 11d2 fdbb 9e84 013e 71c7 49bd
00000060: 20aa 76bd a64e dabc 9d56 ba3d c242 40bc
00000070: 49d9 aa3d 0852 9dbd 7d51 99bc cf90 643c
00000080: 2648 ddbb 288d 043c 4f65 de3c d039 35bd
00000090: 2396 493d 5686 083d 1ce1 bc3d 4ac6 113d
000000a0: 053f 0abd a931 8cbb 06c3 c83c 362a 08bd
000000b0: 338c 10bc 5474 bbbb 63bc 763b 434f b33c
000000c0: 5ba9 23bd 3335 a13d d618 223d 0211 b33d
000000d0: 576f db3d f476 9fbc 5da7 91bc 5e95 2f3d
000000e0: 3b81 afbb d0ea 7d3d 126f b0bb 162f 893d
000000f0: 699e 16bd 090f b6bb 3c60 6abc 3a02 873c
-0.03258779 0.0221047 -0.0060857665 0.019591408 -0.005332067 -0.00511352 -0.020423265 -0.0045960234
0.009971758 -0.012312278 -0.031661026 0.024528064 -0.009167751 -0.06002826 0.03610027 0.06925206
0.04724601 0.025354948 0.020096047 -0.008349131 0.067746945 -0.007745989 0.12648246 -0.049262468
-0.060220838 -0.02664883 0.090985514 -0.011734666 0.08342225 -0.07681662 -0.018715614 0.013950541
-0.0067529855 0.008090295 0.027147917 -0.044244587 0.049215447 0.033331238 0.09222624 0.035589494
-0.033751506 -0.004278381 0.024507057 -0.03324338 -0.008822489 -0.0057206545 0.0037648908 0.02188838
-0.03995643 0.07871475 0.039574467 0.08743478 0.10714596 -0.019465901 -0.01778 0.042867057
-0.0053559816 0.061991513 -0.0053843344 0.06698434 -0.036772165 -0.0055559915 -0.014305171 0.016480554

conv2d_3/bias f4 [32]
00000000: af37 44be efcd 043e 4769 2a3e 2891 02be
00000010: 43e2 7fbd ec34 85bc e67f 033e 52ab b53b
00000020: cb82 823e 522e e83c 0c2c 7d3e 801e 853d
00000030: 76f9 023e 61be 953d 6e2f 483d d8f3 9c3d
00000040: 5d8d af3c 4b3f c03b ff81 7bbc 9681 c03c
00000050: b87b d23d 3d65 513a 8bbf b4bd c0cd 48bc
00000060: d584 7fb9 14a4 12be e888 a8bd 6a08 e63b
00000070: e30b 033d 3a86 1dbe b3a9 6cbd 1f86 a73e
-0.19161867 0.12969182 0.16641723 -0.12750685 -0.06247164 -0.016260587 0.12841758 0.0055441046
0.25490412 0.0283424 0.24723834 0.06499958 0.12790474 0.073117025 0.048873357 0.07663697
0.021429712 0.00586692 -0.015350818 0.023499291 0.10277504 0.0007987803 -0.088255964 -0.012256086
-0.00024368179 -0.14320403 -0.08229238 0.007020046 0.031993758 -0.15383235 -0.057779025 0.32719514

conv2d_2/bias f4 [16]
00000000: fcc7 023c 6d96 1f3c 893e 7d3e cda1 3ebe
00000010: 0400 58b9 9d79 f4ba 1592 49bc ac8c b3bd
00000020: 0963 4c3c dcca 8cbc ace1 0b3e fa31 903c
00000030: e19c 6f3c 014d e43b b663 8f3c 7ad1 72bc
0.00798225 0.009740454 0.24730887 -0.1861641 -0.00020599371 -0.0018651966 -0.012302895 -0.087670654
0.012474784 -0.017186575 0.13660306 0.017601956 0.014624805 0.0069671874 0.0175036 -0.014820451

std.constant1 i1 [64, 3872] scale=0.0073828488 zero_point=0
00000000: fafc 0003 03ff 0503 00fc fcfe f800 0302
00000010: fb05 00fc 04ff fb00 fcff fefe 05f9 fcfd
00000020: 00fe 0302 00fd fbf8 03ff fc01 0001 01ff
00000030: fefc f9fd ffff fffe 02f8 fdfa fcf7 fdfe
00000040: 04fc 01f8 01fd 0402 00fe fbfd fe00 04fd
00000050: 0301 faff fffb f703 fefe 05fd 03fc fdfb
00000060: 0103 0402 0303 0301 04fa fd00 0005 03fa
00000070: fefb fafb ff00 fd03 04ff 04fb 04f8 ff02
00000080: 01fd fffd fcfd fd03 fdff fcff fd05 fb01
00000090: fdfd fcfd fb04 fb03 00fd fbfc fefb 0101
000000a0: fdfc 03fd 0204 0304 00fb fbff 04fe fefc
000000b0: feff fcfa 03fa f702 01fe 02fc 03fa fdfd
000000c0: fcfb fcfc fffc fcff f8f6 04fa fdfb fefb
000000d0: ff02 fafe fdfc fc01 fbfe fbfc 04f8 03fb
000000e0: 0304 fefd 0304 fe01 faf9 0202 05fc 0003
000000f0: fb01 fb00 fefb f9fc fff9 0002 fcff 02ff
-0.04429709 -0.029531395 0.0 0.022148546 0.022148546 -0.0073828488 0.036914244 0.022148546
0.0 -0.029531395 -0.029531395 -0.0147656975 -0.05906279 0.0 0.022148546 0.0147656975
-0.036914244 0.036914244 0.0 -0.029531395 0.029531395 -0.0073828488 -0.036914244 0.0
-0.029531395 -0.0073828488 -0.0147656975 -0.0147656975 0.036914244 -0.051679943 -0.029531395 -0.022148546
0.0 -0.0147656975 0.022148546 0.0147656975 0.0 -0.022148546 -0.036914244 -0.05906279
0.022148546 -0.0073828488 -0.029531395 0.0073828488 0.0 0.0073828488 0.0073828488 -0.0073828488
-0.0147656975 -0.029531395 -0.051679943 -0.022148546 -0.0073828488 -0.0073828488 -0.0073828488 -0.0147656975
0.0147656975 -0.05906279 -0.022148546 -0.04429709 -0.029531395 -0.06644564 -0.022148546 -0.0147656975
0.029531395 -0.029531395 0.0073828488 -0.05906279 0.0073828488 -0.022148546 0.029531395 0.0147656975
0.0 -0.0147656975 -0.036914244 -0.022148546 -0.0147656975 0.0 0.029531395 -0.022148546
0.022148546 0.0073828488 -0.04429709 -0.0073828488 -0.0073828488 -0.036914244 -0.06644564 0.022148546
-0.0147656975 -0.0147656975 0.036914244 -0.022148546 0.022148546 -0.029531395 -0.022148546 -0.036914244
0.0073828488 0.022148546 0.029531395 0.0147656975 0.022148546 0.022148546 0.022148546 0.0073828488
0.029531395 -0.04429709 -0.022148546 0.0 0.0 0.036914244 0.022148546 -0.04429709
-0.0147656975 -0.036914244 -0.04429709 -0.036914244 -0.0073828488 0.0 -0.022148546 0.022148546
0.029531395 -0.0073828488 0.029531395 -0.036914244 0.029531395 -0.05906279 -0.0073828488 0.0147656975
0.0073828488 -0.022148546 -0.0073828488 -0.022148546 -0.029531395 -0.022148546 -0.022148546 0.022148546
-0.022148546 -0.0073828488 -0.029531395 -0.0073828488 -0.022148546 0.036914244 -0.036914244 0.0073828488
-0.022148546 -0.022148546 -0.029531395 -0.022148546 -0.036914244 0.029531395 -0.036914244 0.022148546
0.0 -0.022148546 -0.036914244 -0.029531395 -0.0147656975 -0.036914244 0.0073828488 0.0073828488
-0.022148546 -0.029531395 0.022148546 -0.022148546 0.0147656975 0.029531395 0.022148546 0.029531395
0.0 -0.036914244 -0.036914244 -0.0073828488 0.029531395 -0.0147656975 -0.0147656975 -0.029531395
-0.0147656975 -0.0073828488 -0.029531395 -0.04429709 0.022148546 -0.04429709 -0.06644564 0.0147656975
0.0073828488 -0.0147656975 0.0147656975 -0.029531395 0.022148546 -0.04429709 -0.022148546 -0.022148546
-0.029531395 -0.036914244 -0.029531395 -0.029531395 -0.0073828488 -0.029531395 -0.029531395 -0.0073828488
-0.05906279 -0.07382849 0.029531395 -0.04429709 -0.022148546 -0.036914244 -0.0147656975 -0.036914244
-0.0073828488 0.0147656975 -0.04429709 -0.0147656975 -0.022148546 -0.029531395 -0.029531395 0.0073828488
-0.036914244 -0.0147656975 -0.036914244 -0.029531395 0.029531395 -0.05906279 0.022148546 -0.036914244
0.022148546 0.029531395 -0.0147656975 -0.022148546 0.022148546 0.029531395 -0.0147656975 0.0073828488
-0.04429709 -0.051679943 0.0147656975 0.0147656975 0.036914244 -0.029531395 0.0 0.022148546
-0.036914244 0.0073828488 -0.036914244 0.0 -0.0147656975 -0.036914244 -0.051679943 -0.029531395
-0.0073828488 -0.051679943 0.0 0.0147656975 -0.029531395 -0.0073828488 0.0147656975 -0.0073828488

std.constant2 f4 [10, 64]
00000000: ce40 8dbe 565f 08bf c6e2 753e 2822 2e3e
00000010: 4a05 13bf 5392 7c3e 58a6 82bb eba6 e03d
00000020: a33b 46be 3203 5c3e 56cb 0d3e 5411 95be
00000030: 8651 0c3d b6a7 48be 894b 50bd 1dac b63e
00000040: e5d6 0abe c672 983e 4c18 33bf 62f4 b6bd
00000050: 5d47 24bf e951 143e dab7 1f3e de72 e5bd
00000060: af4f 383d 6c04 45be fbb4 80be 4764 81be
00000070: 2d2d 2bbf 5523 6cbe 8357 8d3e 14b6 cd3d
00000080: 6f8d b4bd 8a6e f33c 6e82 453e 93a2 d3be
00000090: 552b 1c3e fc9f ee3e 482d 52be a492 7b3e
000000a0: db9b 413e ef69 8fbe 2a94 753e 281b 553d
000000b0: d735 42be e177 57bc edc6 dabd e28a 413e
000000c0: 5155 813e ec0f 813e 205f 3d3e 6e53 b5be
000000d0: a9e6 183e 82b3 f0be 7f85 653e 7352 04bf
000000e0: 4869 d03c 3a94 c7bc 8f05 04bd c909 e8bd
000000f0: ac42 4bbd 9bc2 61bc c47b bc3e a2d3 eebe
00000100: 3067 40be 8b9b 25bf d1cc 1abe 850b 0c3e
00000110: 10d5 c33e 31bf 1cbe 4b0b f23d d3ac 90bd
00000120: fe4b ccbe 063f e1bc 23c0 0cbd 70a9 813e
00000130: 8017 29be 6f18 8e3d fea5 a4be baf3 c03e
00000140: 01fc 19bf abb6 c83e 1446 323e 492e 293e
00000150: 9657 373d 3198 e7bd 56c1 53bf e01f 04be
00000160: 464b 01bf bfe4 5c3e fa77 16be 6b61 8ebe
00000170: 547f 7d3e 9666 ee3e a216 acbd aba5 c43e
00000180: 95f9 803e ca70 44bf 148b 20bf 600c 22be
00000190: 5e25 c53e 6e0c 01bf cdbb a33d a5dc 903e
000001a0: e421 d0bd d5af 28bf 0af1 99be e123 173e
000001b0: 3f17 92be d7d0 f3bd 33cd 29bd b44e a73e
000001c0: dc17 08be e8e0 e1be 96b2 86be e8c4 b4be
000001d0: 2be6 3bbe 2a45 4f3e 83f0 063e e03a c83e
000001e0: d676 9abe a410 c23d 3018 5ebe b345 753e
000001f0: 7f36 1e3e 1bdb 49be 5dda 18bf 105a 48bd
00000200: 0259 ecbd e37b 713e faa8 40be 831d 10bf
00000210: b457 22be 3805 a7bd 2740 863d 4e57 9d3e
00000220: 332c 43bf c87e 76be cb68 b3bd 6cac 18bf
00000230: 5c97 c8bd d71b 6cbe 604b 4b3e 667d 913e
00000240: 18d7 a7ba 5cea 823e b2cc 83be e998 33bb
00000250: c0df f8be b293 16be 3efb 973d a26e babc
00000260: 3f31 513e 89a6 d33b b4a3 063e b7a9 123e
00000270: 3b26 bcbe 1b12 a13d 7e61 a23b 3f98 05bf
00000280: 4dff 4cbe 4331 60be 9256 cb3d f390 f4bd
00000290: b62d c4be e551 323e ff00 753e d7b9 03be
000002a0: 2480 053e af90 b7bc afc2 57bd 9db4 7abc
000002b0: 2516 44bd d5fb ab3d 0f35 6dbb d2a0 05be
000002c0: aaf0 703d 7e10 be3e 9acd f43d 018b 0bbe
000002d0: d018 afbe f04b 463d 5be2 743e 1d50 be3d
000002e0: 0675 583d 510a 12bf 2315 473e f87c 3e3e
000002f0: d80d a1be 8106 d53d e8be 7a3e 0e53 3a3e
00000300: 9722 d9bd 51a9 f6bd 6242 38bd 5901 3cbe
00000310: c17b a7be 1544 a1bd a3e9 073e 226c 67bf
00000320: ad85 f2be bb68 fd3b fe29 2a3e d954 583e
00000330: 1e73 59bd 2967 303d 8165 943d a2c5 f83d
00000340: e325 93be 6653 c2bd 0df5 0bbf 7944 533e
00000350: 1d40 8ebe 36cd 5a3e 922f d9bd d76d d2be
00000360: 0141 2f3e 8b3f c9bd cc56 7f3e 56cc 713d
00000370: 42b3 0cbd b773 49bf d259 d0bd 65fd e4bd
00000380: 3e57 00be bb85 dabd 5cf2 993d adbe 05bf
00000390: b01f 8dbe 73da 0abf 1f6e 56bf 7228 ab3e
000003a0: 05d1 6ebe 00cf 433e eb68 ccbd 61d7 403e
000003b0: 060e 12bc 526f 23be 662e af3e 250b 01bf
000003c0: f62a 233e 5124 4dbf f0e6 9a3e 4f3f 923e
000003d0: 525e b53e ad25 0f3d 6dce 66be 12a7 1ebe
000003e0: 3536 7ebc 6149 a43e da43 213e 0469 0ebc
000003f0: cfe7 68bd 140d 6c3e b739 883e 99f9 ebbe
-0.27588505 -0.5327047 0.24012288 0.17005217 -0.57429945 0.24665193 -0.003987115 0.10969337
-0.19358687 0.21485594 0.13847098 -0.29114783 0.034257434 -0.19595227 -0.050853286 0.35678187
-0.13558538 0.29775065 -0.6995895 -0.08933331 -0.6417139 0.14484371 0.15597478 -0.1120355
0.044997867 -0.19239968 -0.25138077 -0.25271818 -0.6686581 -0.23060353 0.2760583 0.10044494
-0.08816039 0.029715795 0.19288036 -0.41334972 0.15250905 0.46606433 -0.20525086 0.24567658
0.1890711 -0.28010508 0.23982301 0.05202785 -0.18965851 -0.01315114 -0.10682473 0.18900636
0.25260404 0.2520746 0.18493319 -0.35415214 0.1493174 -0.47011954 0.22414206 -0.5168831
0.025440827 -0.024362672 -0.032231864 -0.11329991 -0.04962413 -0.013779308 0.36813176 -0.46645838
-0.18789363 -0.64690465 -0.15117194 0.1367627 0.3824849 -0.15307309 0.1181856 -0.070642136
-0.39901727 -0.027495872 -0.034362923 0.25324583 -0.16512871 0.06938254 -0.32157892 0.3768595
-0.6015015 0.39201865 0.17409545 0.16521563 0.044761263 -0.11308325 -0.8271688 -0.12902784
-0.50505483 0.21571635 -0.14694205 -0.278087 0.24755603 0.46562642 -0.08402754 0.38407645
0.25190416 -0.767346 -0.62712216 -0.15825033 0.3850507 -0.5040959 0.079948045 0.28293338
-0.10162714 -0.658933 -0.3006671 0.1475978 -0.2853336 -0.119050674 -0.04145546 0.32677233
-0.13290352 -0.44116902 -0.26308125 -0.35306478 -0.18349521 0.20241228 0.13177685 0.39107418
-0.3016879 0.0947583 -0.21688914 0.2395237 0.15450476 -0.19712488 -0.59708196 -0.048914015
-0.115404144 0.23582415 -0.1881446 -0.5629503 -0.15853769 -0.08155292 0.06555205 0.3073067
-0.7623932 -0.240718 -0.08760222 -0.59638095 -0.097944945 -0.23057495 0.19852972 0.28415984
-0.0012805192 0.25569427 -0.25742108 -0.0027404374 -0.48608208 -0.14704779 0.074209675 -0.022757832
0.20428942 0.0064590615 0.13148385 0.14322554 -0.36747918 0.078647815 0.0049554696 -0.52185434
-0.20019265 -0.21893792 0.09928621 -0.11941709 -0.38316125 0.17414053 0.23926161 -0.12863861
0.13037163 -0.022407858 -0.0526759 -0.015301851 -0.04787268 0.083976425 -0.0036194955 -0.1304963
0.058823265 0.37121958 0.11953278 -0.13627245 -0.34198618 0.048412263 0.23914473 0.09292624
0.052845977 -0.5704699 0.19441657 0.1860236 -0.31455874 0.10401631 0.24486887 0.18195745
-0.106023006 -0.12044013 -0.044985183 -0.18359889 -0.32711604 -0.07874314 0.13272719 -0.9039937
-0.47367612 0.007733432 0.16617581 0.21126117 -0.0530883 0.04306713 0.07245923 0.121470705
-0.28739843 -0.09488563 -0.5467079 0.20631589 -0.2778329 0.21367344 -0.106047764 -0.41099426
0.17114641 -0.09826573 0.24935454 0.05903276 -0.03435064 -0.7869219 -0.10173382 -0.11181144
-0.1253328 -0.10670038 0.075169295 -0.52244073 -0.27563238 -0.5423958 -0.8376178 0.33429295
-0.23321922 0.19121933 -0.09980949 0.1883216 -0.008914476 -0.15960434 0.34215087 -0.5040763
0.15934357 -0.8013354 0.30254316 0.28563926 0.35423523 0.03494804 -0.22539683 -0.1549342
-0.015515854 0.32087234 0.1574854 -0.00869203 -0.056861695 0.23051864 0.26606533 -0.46088865

std.constant3 f4 [16, 3, 3, 1]
00000000: f011 0dbe bf63 90bd b702 433e 97a1 03be
00000010: efee 16be 1823 893e 429c 81be 67ed 08bd
00000020: 7951 8e3e d66d bbbd b1b6 013d afbd cf3e
00000030: 1b7c 4c3e 47fb 983e 87bb 0dbd 5a71 febd
00000040: bd76 b6be 47d1 aabe af0e 91bf c0bd 91bf
00000050: 5776 40bf 7899 76be eb41 79bf 0655 4abf
00000060: 9acd 723e 15a7 ff3d 6cf8 053d 8e6e a03d
00000070: 4f11 143e d880 8a3d 2dad a33d 77c1 323d
00000080: 741a 513e 9147 fb3d f5ac 09bd a41b 1dbe
00000090: dc91 1a3d 37a8 74be 5fe5 663e 7b0d 313d
000000a0: f120 8bbe 607c 743e a936 75be 44f0 3b3e
000000b0: 63dd 8a3d 6a00 a5bd 7f6c 763e 9729 5ebe
000000c0: 8384 303e 2e8e 3c3e 6b74 b7be 9fbf de3d
000000d0: 50a8 4d3e 5856 86be 3dc8 da3d b159 9f3e
000000e0: 77b3 77be 0ae7 503e 3558 723c 7cf4 1abe
000000f0: 2995 5e3e a057 4cbe 0dd4 42be 2b8f 2a3e
00000100: 3dfd 3abe 8b67 f83d c57c f73d e2bf adbe
00000110: e76e 8d3e 80fd 543e 2ec7 cabe 1483 023e
00000120: 2a57 97be df80 aa3e e374 313e 51c8 85be
00000130: 9d76 053e 91bf f13c 6d63 48be d985 873e
00000140: fd1a 1bbe 2bce adbe a649 723e 1c83 2d3d
00000150: 25a6 493e a996 f9bd bcc3 ea3d 5fe3 c13e
00000160: 732e 71be ec76 78be 7193 acbe f407 50be
00000170: 11f0 e53e 7afd 79bf 4f80 5dbd 4c97 f23d
00000180: 9b4f 223e a135 cabe 0b00 d8be 4329 bdbe
00000190: 2f41 fabe fea2 873e a219 8c3e 588a 203e
000001a0: c589 163e e9bc e03d 8ee7 943e 0d92 c8be
000001b0: e869 463e 3be0 983e a06e b93e 1ff1 d9be
000001c0: c79c d1bc 335e 03be 87d2 383e a267 99be
000001d0: 2719 bcbe cdd7 01be 0091 5a3e acd5 f6bd
000001e0: 16f6 9cbe 071f cf3d 71da 6a3e 5816 26be
000001f0: 2cd3 58be a77d c43e b592 8abe 2a7a 85bf
00000200: a6f9 0bbe 5f79 153e 2de5 b4be 79e3 403e
00000210: 6dda ee3e f94e 3c3c 1931 233e 66fe 7f3d
00000220: bf2d 9d3e 83da bbbe 7705 f93d 92da bdbe
00000230: f556 9c3e f638 53be 10ae 3a3d 46ba a23d
-0.13776374 -0.07050275 0.19044004 -0.1285461 -0.14739583 0.26784587 -0.25314528 -0.03342953
0.27796534 -0.09151809 0.03166837 0.40574405 0.19969217 0.2987921 -0.034602668 -0.12423964
-0.35637465 -0.3336279 -1.1332606 -1.1386032 -0.7518057 -0.24081981 -0.9736621 -0.79035985
0.23711243 0.1248304 0.032707617 0.07833587 0.14459728 0.06762856 0.07992015 0.043641534
0.20420247 0.122695096 -0.03361221 -0.15342575 0.03773676 -0.23892294 0.22548436 0.043225747
-0.2717357 0.2387557 -0.23946632 0.18353373 0.067805074 -0.080567196 0.24064825 -0.21695553
0.17238049 0.18413612 -0.35831007 0.108763926 0.20083737 -0.2623775 0.10682724 0.31123117
-0.24189554 0.20400634 0.014791538 -0.15132326 0.21736588 -0.19955301 -0.19026203 0.16656177
-0.18260665 0.12129124 0.12084345 -0.33935457 0.27623674 0.20799828 -0.39605087 0.12745315
-0.29558688 0.33301446 0.17329745 -0.26129392 0.13033529 0.029510291 -0.19569178 0.26469305
-0.15147014 -0.33946356 0.23660907 0.042361364 0.19692285 -0.12186939 0.114631146 0.37868783
-0.23552875 -0.24264115 -0.3370624 -0.20315534 0.4490972 -0.976524 -0.054077443 0.11845264
0.1585068 -0.3949404 -0.42187533 -0.36945543 -0.48877856 0.2649154 0.27363306 0.15677774
0.14700992 0.10973532 0.29082912 -0.39173928 0.19376338 0.29858574 0.36217213 -0.42566773
-0.025587453 -0.12828903 0.1804906 -0.29961878 -0.3673794 -0.12679978 0.21344376 -0.120524734
-0.306565 0.1011334 0.22934891 -0.16219461 -0.21174306 0.38377115 -0.27065054 -1.0427907
-0.13669452 0.1459708 -0.35331097 0.18836774 0.4665102 0.011493438 0.15936698 0.062498473
0.30698964 -0.3669015 0.121592455 -0.37080818 0.30535093 -0.20627198 0.045576155 0.07945685

std.constant4 i1 [32, 3, 3, 16]
00000000: f175 b30f 030e 1fb6 030c aade 7d11 d43d
00000010: 12f1 13bd 3219 0aef c9e1 e6f9 da10 4251
00000020: d8f4 79a5 c7c2 bdef b6f0 c411 f0d7 65ab
00000030: 37f5 9ec2 26f0 15d3 fd2f 14cc 1e3e b44a
00000040: 1310 e2b8 3828 232b 1c1a 2941 29e5 15c5
00000050: 24e2 aec6 12ac eb03 19de 39c2 eb17 f836
00000060: 5a25 eb81 4a15 f2eb 102c 7615 0f30 f143
00000070: f846 12a4 e722 eae9 39fb 4d01 3ede 0af0
00000080: 2223 eec4 23df 9f05 34e5 631f 5058 f41d
00000090: f216 0808 f52f 32f5 174b 1d70 0514 15f5
000000a0: 31fb d0d3 4df7 2ec9 16ef fc3d 34e9 e041
000000b0: e281 d4f1 012c 0112 39e7 d3b7 0c2e d90e
000000c0: b8f7 fc02 bfd3 15e2 f906 f1ed dfd1 9319
000000d0: f1e1 84fe 1e1b ebb6 15f5 c003 dafe a9c8
000000e0: 0ae0 dce3 07ec 0747 ee30 229f e91d c922
000000f0: b017 f103 b0f2 e2d4 f001 0150 d4c8 28fc
-15 117 -77 15 3 14 31 -74
3 12 -86 -34 125 17 -44 61
18 -15 19 -67 50 25 10 -17
-55 -31 -26 -7 -38 16 66 81
-40 -12 121 -91 -57 -62 -67 -17
-74 -16 -60 17 -16 -41 101 -85
55 -11 -98 -62 38 -16 21 -45
-3 47 20 -52 30 62 -76 74
19 16 -30 -72 56 40 35 43
28 26 41 65 41 -27 21 -59
36 -30 -82 -58 18 -84 -21 3
25 -34 57 -62 -21 23 -8 54
90 37 -21 -127 74 21 -14 -21
16 44 118 21 15 48 -15 67
-8 70 18 -92 -25 34 -22 -23
57 -5 77 1 62 -34 10 -16
34 35 -18 -60 35 -33 -97 5
52 -27 99 31 80 88 -12 29
-14 22 8 8 -11 47 50 -11
23 75 29 112 5 20 21 -11
49 -5 -48 -45 77 -9 46 -55
22 -17 -4 61 52 -23 -32 65
-30 -127 -44 -15 1 44 1 18
57 -25 -45 -73 12 46 -39 14
-72 -9 -4 2 -65 -45 21 -30
-7 6 -15 -19 -33 -47 -109 25
-15 -31 -124 -2 30 27 -21 -74
21 -11 -64 3 -38 -2 -87 -56
10 -32 -36 -29 7 -20 7 71
-18 48 34 -97 -23 29 -55 34
-80 23 -15 3 -80 -14 -30 -44
-16 1 1 80 -44 -56 40 -4
